Data/Aug_ModelKUKA_RPY_orient_indep_100_50_50_100_50_angle_Release_/net.pth (torch, 57815 bytes, 26 tensors)

weight f4 [50, 100]
00000000: 471a 54bc 4f99 5fbd acb4 b23d 392d c03b
00000010: af8a 9ebd dfb2 12bd d86c 71bd 9a26 d6bd
00000020: 15ad 653d fe31 1b3c 11dd d2bd a812 b53d
00000030: e424 76bb fa84 c1bd fc87 a53b a3f8 b03d
00000040: ad9c 7e3d 11e9 ccbd e4ad a1bd cfca 4a3d
00000050: 4361 ab3d 07a7 03bd 30a1 63bd 0abf 1cbd
00000060: 0235 b23c 1790 abbd 7c56 d3ba 5913 84bd
00000070: 1478 b03d 5a02 a4bd 7028 74bc 6fee 4e3d
00000080: 3358 b33c 7dea 05bd 4f9f 383c a8f7 52bd
00000090: 9ca4 0c3b 0677 f3bc fb95 c33c c015 603c
000000a0: 0853 f13b 06af 89bc 4dbd ab3d da8a a1bd
000000b0: d31a 50bd 5bbe 36bd e366 a63d 22d2 47bd
000000c0: 1c76 813d 1f4c 5ebd de0c b63d 01c9 793d
000000d0: 9a68 a1bd 58fa c6bc cdfe 8bbd 9439 b8bc
000000e0: 124e 8f3d da76 bbb9 ee28 01bd bf15 913d
000000f0: b484 a23d 69f6 69bd 1bbe 4ebd 9e8a dfbd
00000100: 368c 72bd c6d4 ccbd 1295 aa3c bdff 9e3d
00000110: 356b c4bd 33b7 b3bd 4068 373d 1d42 8bbc
00000120: ea62 6dbc a247 743c ed12 9bbd c9f8 4abd
00000130: 64d4 9ebd 5582 823b c335 84bd c7bd 24bd
00000140: 1a65 e2bc 197f bfbd 4f5e 9dbd a938 13bd
00000150: 3b72 193d f253 60bd fecb 38bd 6db8 6e3c
00000160: c964 e53c 9218 debd 7a1d bbbd a0a5 bebd
00000170: e8a9 223d bb16 a0bd 2e8d d9bd a64b 803b
00000180: 338b 4c3d 56fc 973d 2bec 56bc b644 bdbd
00000190: fb85 3c3d 6854 1f3d 59fe 8fbc 4949 bfbd
000001a0: 3067 863d c461 103d ffc0 5c3d b71b 693d
000001b0: 6fa4 033d 7c50 763d 5634 f2bc 5080 59bc
000001c0: 5eb4 95bd e5b3 b13d e2ca 92bc aa07 bcbd
000001d0: 8f19 37bd 2f75 dbbd a67e d0bc 06de 5d3d
000001e0: f67e 383b a259 fabc db27 88bd dc69 a0bd
000001f0: 23e5 2fbd f91f 87bd 6bf7 533b 0668 183c
00000200: 1004 033d 19d1 433d 6d1a a1bd 771c 75bc
00000210: 8b40 83bd ba02 33bd 16c0 433d 528b bfbd
00000220: b393 ad3d 5b3f a63d 52ea 65bd a1aa 24bd
00000230: 10d2 9fbd 854b 98bd c540 9dbd f3c8 a7bc
00000240: 85e7 99bd eb99 e13c f404 b5bd 67c5 1abd
00000250: 7012 95bd 8042 ae3d 35f9 69bd d0dd a2bd
00000260: 6722 abbd 6dc4 3a3c afa7 50bd d13a 05bd
00000270: c18a 933d 4e2d 693c 1b56 68bc 18ff ab3c
00000280: cb96 85bd a820 8bbd c2e2 08bc f151 423c
00000290: 5de1 adbc a8dc b23b a79c 833d 1d8e 553c
000002a0: e289 913d 80c8 ae3c b086 06bd 52b8 0abd
000002b0: 7824 003d da1f 7d3d 892c d33c 913c 463b
000002c0: 888e 6c3d d76b da3b 5d8c af3d 56e7 903d
000002d0: c724 a23d cc47 fabc 7843 c6bc 6b91 a03d
000002e0: 920c 543d 5d32 29bd 5275 923c e5a0 003d
000002f0: d9f6 83bd 1beb 96bd bb67 983d d767 eb3c
00000300: dc09 593d 5ada e33c a6da 76bd a07e 8abd
00000310: 0591 a33c 9e34 753d f335 c23c 92ee 4c3d
00000320: 250f babc c0ba 80bd 62a2 703c 422d 40bd
00000330: 3144 c5bc 753b 613d 73c0 ccbd 6b6a aebd
00000340: 70e6 b83b 3bad 84bd a34f 85bd 939d 64bc
00000350: d73c ad3d 4089 a53d b87c c7bd c38b b4bd
00000360: be7f 94bd 34ad c33c 01dc 843d 36aa abbd
00000370: 94c3 7ebc ec68 5a3c da0f acbd d693 c0bb
00000380: 53dd eabc cb0e e3bc 2096 53bd 4f7d 7b3c
00000390: a5c9 8a3c 0114 9abd 9bfb 33bd 9437 25bc
000003a0: f513 a73d ae73 a63c 9916 a4bd 65b1 a6bd
000003b0: 19d9 8bbd 97ff da3c befb 43bd 9e1c 053d
000003c0: 5bac d7bd b131 b93d 3d3c 183d 22f6 85bd
000003d0: b2cf 9cbd 328f 5e3d 2af8 acbc be5d b2bc
000003e0: c436 0b3d a367 953d 3272 cfbd c876 063c
000003f0: 8760 b8bd 5dd8 27bd ba0a 7f3d c943 fb3c
-0.012945718 -0.054589566 0.08725867 0.005864766 -0.077412955 -0.035815116 -0.058941692 -0.104565814
0.056073267 0.009472368 -0.10296071 0.08841449 -0.003755861 -0.094491914 0.005051611 0.08641174
0.062161136 -0.100053914 -0.07894495 0.04950982 0.083681606 -0.03214171 -0.055573642 -0.038268127
0.021753792 -0.08377092 -0.0016123797 -0.06449003 0.08616653 -0.08008261 -0.014902219 0.050520357
0.021892643 -0.03269433 0.011268451 -0.051505715 0.002146042 -0.02971984 0.023875227 0.013677061
0.0073646344 -0.01680709 0.08385716 -0.07887812 -0.05080683 -0.04461513 0.08125093 -0.048784383
0.06321356 -0.054271813 0.08889173 0.060982708 -0.07881279 -0.024289295 -0.06835709 -0.022488393
0.069973126 -0.0003575597 -0.031533174 0.07084226 0.07935467 -0.05711976 -0.050474267 -0.10915111
-0.059215747 -0.10001521 0.020823035 0.07763622 -0.095907606 -0.08775177 0.044777155 -0.016999299
-0.014488915 0.014909657 -0.07571969 -0.049553666 -0.07755354 0.003982822 -0.06455567 -0.04022005
-0.0276361 -0.09350414 -0.076840036 -0.035942707 0.037462454 -0.054767556 -0.045116417 0.014570338
0.02800216 -0.1084453 -0.091364816 -0.09308934 0.039712816 -0.078168355 -0.10622631 0.003915268
0.04993744 0.07421176 -0.01311783 -0.09241621 0.04602621 0.038898855 -0.017577337 -0.0934015
0.0656265 0.035249487 0.053894993 0.056911197 0.032139238 0.06013535 -0.029565971 -0.013275221
-0.07309793 0.0867689 -0.017919008 -0.09181149 -0.04470211 -0.1071571 -0.025451016 0.054166816
0.0028151846 -0.030560318 -0.06648227 -0.07832691 -0.04294313 -0.06597895 0.0032343518 0.009302145
0.031986296 0.047806833 -0.078663684 -0.0149604 -0.06408795 -0.043703772 0.04779061 -0.09352745
0.08475437 0.08117553 -0.05613167 -0.040201787 -0.07803738 -0.07436279 -0.076783694 -0.020481562
-0.07514862 0.027539214 -0.08838835 -0.037785914 -0.07278907 0.085087776 -0.057122428 -0.079524636
-0.08356171 0.011399371 -0.050941166 -0.032526795 0.072041996 0.014231993 -0.014180685 0.020995662
-0.06522902 -0.06793338 -0.0083548445 0.011860357 -0.021225626 0.005458433 0.064263634 0.013034371
0.07106377 0.02133584 -0.03284329 -0.033867188 0.03128478 0.061797954 0.025778072 0.0030248503
0.057753116 0.0066656875 0.08571694 0.07075374 0.07917171 -0.030551814 -0.024202093 0.07840236
0.0517698 -0.041307796 0.017878208 0.03140344 -0.06443567 -0.073690616 0.0744166 0.028736038
0.05298792 0.02781408 -0.060267113 -0.06762433 0.019966612 0.059864633 0.023707366 0.050032206
-0.0227123 -0.0628562 0.014687153 -0.04691816 -0.024080368 0.054988343 -0.09997644 -0.08516391
0.0056427047 -0.064783536 -0.0650933 -0.013953584 0.0845887 0.08082819 -0.09740585 -0.0881572
-0.072509274 0.0238863 0.06487275 -0.083820745 -0.015549559 0.013330679 -0.08401461 -0.0058769984
-0.028669989 -0.027717015 -0.051656842 0.0153497 0.016941855 -0.07523347 -0.04394112 -0.010084052
0.081581034 0.020318832 -0.08012123 -0.08139304 -0.068285175 0.026733203 -0.047847502 0.032497995
-0.10530921 0.09042681 0.037166823 -0.06541087 -0.07656802 0.05433578 -0.021114428 -0.021773215
0.033987775 0.07295158 -0.10129203 0.008207031 -0.09002786 -0.040977824 0.06226609 0.03067197

bias f4 [50]
00000000: 9240 cabc 899c 973d 34d3 c7bb c979 b9bd
00000010: 3b9a ae3d 24ed 9fbd 169b a5bc 118b 00bd
00000020: 827b 98bd 0fa9 aebd 938f 90bd 334b afbd
00000030: c778 91bc ed13 59bc bb0d a93d 0dc3 aebd
00000040: 4294 763b a904 313c 0020 c83c c465 45bd
00000050: a50a 61bd b96e 8a3d 72b9 64bb 9bb8 32bd
00000060: 2757 96bd 0bfe a2bb 5483 2f3d f160 aa3d
00000070: f655 c63d 808b 36bc 7b3d 19bd 3f66 94bd
00000080: 4236 9a3c cf87 193d 67db 603d 05ab c83d
00000090: 2d14 943c 7ae8 85bd b39c 4b3d d06a 9dbd
000000a0: 78d4 9a3d ad6f 883d 7c8a 97bc ab66 e3bc
000000b0: e059 18bd d05a 66bd a4e4 9dbd 7284 cb3d
000000c0: 5477 4f3d fb39 6a3c
-0.024688993 0.074029036 -0.0060981754 -0.09056432 0.08525511 -0.07808903 -0.020215552 -0.031382624
-0.07445432 -0.08528339 -0.070586346 -0.08559265 -0.017757786 -0.01324938 0.08254572 -0.08533297
0.003762499 0.010804334 0.024429321 -0.048192754 -0.054941792 0.067594 -0.0034900573 -0.043633085
-0.07340842 -0.004974132 0.042849854 0.08319271 0.096843645 -0.011141658 -0.037412148 -0.072460644
0.0188247 0.037483033 0.05489674 0.097982444 0.018076027 -0.06538482 0.049709987 -0.076863885
0.075600564 0.066619255 -0.018498652 -0.027758917 -0.037195086 -0.05623895 -0.07709625 0.09937371
0.05065091 0.01429605

weight f4 [50, 50]
00000000: 7907 283d 1d13 b43c 654c f2bc f5f4 e1bd
00000010: 5275 f73d b75b e33d dd1b 63bc be9f 1e3c
00000020: 8cce fdbd 1a56 81bd 80f2 723d 7823 8fbc
00000030: 1d2a 30bd 0020 593d 01bf 6e3c 9a13 873d
00000040: a166 74bd 86f4 b83d 8f2a c23d 7727 e2bd
00000050: 13ba e43d c912 2b3d c0e3 b93b 9ac0 063e
00000060: 228e f7bd 3ed2 a8bd 49bb 0aba 01e0 04b9
00000070: cbfa 95bd 6fdd ac3d e8d9 443d 92f4 88bc
00000080: b05c a9bc 8d70 d83d d16e a03d c6a6 8dbd
00000090: 554a 073e 4131 bfbd 2f67 8a3c eda5 2c3d
000000a0: 184e 49bd c302 2c39 74f9 313b bb3c e3bd
000000b0: 02aa 6cbd 34ed cfbd a3ad adbd c10c 8abd
000000c0: 7c38 a03d b0d6 98bd 6595 883b d67c 953d
000000d0: 27a1 9a3d f024 a73d 229e b73d d164 a23c
000000e0: 8b09 b43b 3ae3 203d 8a5d 80bd 7b08 853d
000000f0: ea96 d23d 1c69 f4bd dfd5 e13b ef1a 4fbd
00000100: 44bb 71bd 1d45 84bd df38 8bbb eff1 07be
00000110: d919 5f3d 43d2 13be de2d 813d 12c7 13be
00000120: 9d71 703d ac33 b13c 5bf6 03be e2cc 1abc
00000130: 1153 773c 644e 80bd f6ba 7e3d a58b e23c
00000140: a495 603d b9b6 003d 5e05 e4bd e1ea 5a3d
00000150: 5dcc f7bd 15e0 b23d 490a c2bd 20f1 13be
00000160: c620 08be 6423 023d cfe9 fbbd c0d0 663b
00000170: bad8 9c3c b26b 86bd deb8 bfbd 1bb0 9c3d
00000180: b567 973d 94cf 8d3d be90 93bd bb23 11be
00000190: 0a08 f13d 5da0 b23d d3a3 aebd 1341 ffbd
000001a0: f85d 0dbe b4c6 3ebd 1063 b53d 5bd3 123d
000001b0: 7e9a 41bc e8df 3bbc 0883 b73d 33c5 f7bd
000001c0: 9c2c 18bb 5331 863d b68f 00be cd92 77bc
000001d0: 83b2 f43d b376 52bc fc3e 143b 7eb9 02be
000001e0: 9cce 6bbd ffb7 e43d 68d8 fb3c 414e b83d
000001f0: 7bf4 9cbc 7bdd 11be 42aa eebd 93a1 783d
00000200: dd31 abbd 71ce 0bbe 6015 433d c2d9 903d
00000210: 4379 07bd 3589 aabd 1896 863d 35e2 11be
00000220: 2013 ccbd 0409 5fbc 2f85 e33c cbdc f73d
00000230: 65ba d6bd 71dc f13d ef9c babd 35e1 f73d
00000240: e762 e8bd dd6b f93d 98ba 023d fe31 10be
00000250: 7c30 c13c 2076 d7bc d4cb c8bd 5769 afbb
00000260: 5fa1 0cbe abad 653d a875 e93d 5a65 08be
00000270: c19d 1e3d ab76 143d 91a2 bc3c 8dd8 d93d
00000280: 258c 5f3d a3ee 853d 36e3 96bc 2f25 5e3d
00000290: 892e 03be 9f1a cbbd 3227 fb3d 7c9d 823d
000002a0: 2987 a5bd f6cd df3d 3a69 e13d efb0 0ebe
000002b0: 9e54 123d 4f6d 9bbd c517 b4bd af31 dd3d
000002c0: 0b79 fd3d d7e8 633d eb1d 51bd ce6d cd3b
000002d0: 6e1e 063e e404 983d a15a ccbc e6c8 f13d
000002e0: 9fed 4e3d be98 33bd c748 fcbd 349f 6dbd
000002f0: e523 abbd d9ae aa3d 8b97 4abd 2be5 14be
00000300: 5db9 debd d17e d3bd e4cd f13d f407 d6bd
00000310: dca6 1abe dbef d73d e5f5 d73d ac78 88bd
00000320: 9b75 fc3d 697f e6bd 01e4 1c3d 46a1 273d
00000330: 7f2f d93d b23a 0bbe c1b4 b33c 5131 0ebe
00000340: 9d4b 9dbd c34b 3b3d dd75 0cbd 6f9d 05be
00000350: 3ac4 b33d fd0d 0b3d e5dd 13bb e34c cc3d
00000360: 59c7 d0bd 43e9 7d3c d945 c5bd 2521 06be
00000370: 7258 063e 9fad 893c 1226 dc3c c3b4 043e
00000380: 0e79 823d ef8d 013e fbf9 f03d 5f05 94bd
00000390: f60a 5c3d 4a4c c2bd 19c9 ef3d 2566 a5bd
000003a0: b646 72bd 938f 1b3d b7d5 c33c f279 47bd
000003b0: 1015 90bc 486d 813d a0e9 d2bd 0b76 69bd
000003c0: 113b 5cbc 82e5 fdbd d628 f5bd 52dd 9f3d
000003d0: 3302 03be 370b 7f3d 3c2f 1ebd 7049 933d
000003e0: 18bb 13be 0e18 0abe a310 66bb 17ec 5cbd
000003f0: 453f 9b3d e28d 3fbc 9f02 62bd b705 873d
0.04102275 0.02198177 -0.029577443 -0.1103305 0.12082924 0.111014776 -0.013861624 0.00968164
-0.12392911 -0.06315251 0.059313297 -0.017472968 -0.043008912 0.053009033 0.014571906 0.065955356
-0.059668187 0.09031014 0.09480774 -0.110426836 0.11168303 0.04176596 0.005672902 0.13159409
-0.120876566 -0.082432255 -0.000529219 -0.00012671949 -0.073232256 0.084406726 0.048059374 -0.016718183
-0.02067408 0.10568342 0.078336366 -0.06916575 0.13211949 -0.09335566 0.016894905 0.042150427
-0.04914674 0.00016404227 0.0027156742 -0.11095568 -0.05777932 -0.10152665 -0.08480384 -0.06740714
0.078232735 -0.074628234 0.0041682 0.07299201 0.075502686 0.08161342 0.08965708 0.019823464
0.0054943017 0.0392792 -0.06267841 0.06495758 0.10282691 -0.119341105 0.0068919505 -0.050562795
-0.05901648 -0.06458495 -0.004248723 -0.13275884 0.05446801 -0.14435677 0.063075766 -0.14431408
0.0587021 0.021631084 -0.12886946 -0.009448262 0.015095488 -0.06264952 0.06219002 0.027654478
0.05483021 0.031424258 -0.11133836 0.053446654 -0.12099526 0.087341465 -0.09474618 -0.1444745
-0.13293752 0.031772032 -0.12300455 0.003521964 0.019146312 -0.0656351 -0.093614325 0.07650777
0.073928274 0.06924358 -0.07205342 -0.14173786 0.117691115 0.08721993 -0.08527341 -0.12463584
-0.13805377 -0.046576217 0.08856785 0.035846096 -0.011816619 -0.011466958 0.08960539 -0.1209816
-0.0023219949 0.065523766 -0.12554821 -0.015110684 0.11948111 -0.012845683 0.002262055 -0.12766072
-0.057570085 0.11167907 0.030742839 0.08999301 -0.019159546 -0.14244644 -0.11653568 0.060700964
-0.0835912 -0.1365297 0.047627807 0.07072784 -0.03307463 -0.083269514 0.06571597 -0.14246447
-0.09964585 -0.013612989 0.027773468 0.1210266 -0.10484771 0.11809624 -0.09111964 0.12103502
-0.11346989 0.121787764 0.03191623 -0.1408157 0.02358269 -0.026301444 -0.09804502 -0.0053531337
-0.13733433 0.056073826 0.11399394 -0.13319913 0.038724665 0.036245983 0.023026736 0.10637007
0.05457701 0.06539657 -0.01841889 0.05423468 -0.1281072 -0.09917187 0.12263335 0.06377694
-0.080824204 0.10927956 0.110063985 -0.13934682 0.03572523 -0.07589208 -0.08793596 0.10800492
0.12376603 0.055641975 -0.051053923 0.0062691933 0.13097546 0.07422808 -0.024945559 0.118058965
0.050519582 -0.04384684 -0.12318569 -0.058013156 -0.08356456 0.08334131 -0.04946093 -0.14540546
-0.10875199 -0.10326923 0.11806849 -0.10450736 -0.15102714 0.10543796 0.105449475 -0.06663641
0.12327119 -0.1125477 0.03830338 0.040925287 0.10604762 -0.13596609 0.021936776 -0.13886
-0.07680438 0.04572655 -0.03429209 -0.13048337 0.087776616 0.033948887 -0.002256268 0.099756025
-0.101942725 0.015497508 -0.09632463 -0.13098581 0.13119677 0.016806422 0.026873622 0.1295958
0.063707456 0.126518 0.1176643 -0.07227587 0.05372139 -0.09487207 0.11708278 -0.08076123
-0.059149466 0.03797872 0.023905618 -0.04870028 -0.017588168 0.06319672 -0.10298467 -0.05699734
-0.013441817 -0.12397291 -0.119706795 0.078058854 -0.12793808 0.062266555 -0.038619265 0.071917415
-0.1442684 -0.13485739 -0.003510513 -0.05393609 0.07580427 -0.011691542 -0.05517828 0.06592887

bias f4 [50]
00000000: 5d59 10be 8c4d 5a3d 0d19 23bd 7b8a 943c
00000010: ed9c 6abc 9140 df3c 9d6b aebd 5dcc dc3d
00000020: 4848 f53c 08c8 a2bc 9657 d5bd 403f 8bbd
00000030: 1e99 a83d b61c 733d ae93 c7bd 490e 123e
00000040: f0e9 903d dd84 8bbd a7eb 843d 1482 19be
00000050: 48a7 553d cf18 2ebd e3b7 8abd 3242 8e3d
00000060: fcfc 913d ed21 e03d 9d96 df3d 473d ecbd
00000070: f404 8f3d ed8a e53d d03c c83d d507 8cbd
00000080: 05bb fbbc d0b2 61bd 6736 6cbd 511c 5fbc
00000090: c21a e9bc 9a1b f6bd bba9 5d3d f46f fcbd
000000a0: 4701 2fbd a717 e8bd b889 023e b382 01be
000000b0: d34a b63d 0fca 133d f9df 95bd 87d5 d3bd
000000c0: e59c 0e3d cbc2 d23c
-0.1409659 0.05329661 -0.039818812 0.018132439 -0.014319641 0.027252467 -0.08516619 0.10781167
0.029941693 -0.019870773 -0.10417096 -0.06799173 0.0823233 0.059353553 -0.097449645 0.14263262
0.0707587 -0.06812451 0.064902596 -0.14991027 0.052161485 -0.042504128 -0.06773355 0.069462195
0.07128331 0.10943971 0.10917399 -0.11535125 0.069833666 0.112081386 0.09777224 -0.06837431
-0.030728826 -0.05510217 -0.05766907 -0.013617591 -0.028455142 -0.12016983 0.054116946 -0.12326041
-0.042725828 -0.11332636 0.12747848 -0.12647514 0.0890099 0.03608137 -0.0731811 -0.103434615
0.034817595 0.02572765

weight f4 [100, 7]
00000000: 7a52 3b3e cdc8 23be 2cbc 85be e820 8f3e
00000010: bab5 b0be 92af 9abe 998e 7a3e 4af3 59be
00000020: b100 95be ae92 23be 1909 4fbe b627 aa3e
00000030: 3921 42be 91ec 863e ae4e 003e 4a0a 2a3e
00000040: 4e91 913e c339 0e3e de60 abbd 33bc 89be
00000050: 50ee dd3d 3d7b bbbd 0240 9f3e d05d 88be
00000060: 89f1 d33d 3430 cc3d a562 aabd 2bfe 653e
00000070: 4b86 233e e384 f13d 24e5 763e 1b4e ef3d
00000080: 5111 8b3e 9ba0 29be af9c 40bd 842a b2bd
00000090: 3eb6 763e 3ad8 93be b8d4 b7be 3c34 933e
000000a0: c97c 9abe 3a13 60be cfa8 823e 5b3e 7bbe
000000b0: eeb3 cdbc 9612 933e 5b7a 28be 989d 12be
000000c0: 49fc d0bc 462e 60be c174 ba3d a2ca 17be
000000d0: f7f0 bdbe 4218 813e b1bc 07bd 757b 7fbe
000000e0: 9dad 4fbe 2d40 97be 3cfd 69be ea1b a03c
000000f0: 4957 9a3e 9f63 abbe 71c9 6dbe 41c8 fcbd
00000100: 40cd b8be d82c 4c3e 4a95 b23d 389f 66be
00000110: a2a2 0cbe 8a34 c23d 0e88 9c3e fc0d 07be
00000120: 9050 c13e a64f ecbd 873a 91bd 436d 98be
00000130: 2024 34be e78c 913e 630b c0bd 6600 8e3e
00000140: deb5 a7be 389d 2f3e 83f1 5e3e f2c7 e53d
00000150: c16d 6e3e cf07 9e3e 520f c03e cd40 61be
00000160: 2224 af3e a442 633d 2039 38bc 83ad 993e
00000170: 6806 4bbe fc24 97be 5b23 c13e 63dc 523d
00000180: e7d7 ba3e 0df7 babe 908b 543e eb05 443d
00000190: b32f 4abe d7a8 1e3e d152 a03d 27ec 07be
000001a0: 73ea 7f3e a76b 75be de97 eebd e37b 823e
000001b0: dd6f c13e 5663 ba3e d132 f63d 85af 06bd
000001c0: 8f1d 24be 507a b4be 443f bdbe 73c0 a6be
000001d0: 6ef3 253e 9221 5bbd d44e 673c fddc abbd
000001e0: 1be3 ac3e 6d2b 643e 3526 b2be 879f 27bd
000001f0: d3a1 36be 0379 4dbe 40a1 b23e 6782 cb3c
00000200: 272c f0bd c045 af3d 9294 bcbe 7eff fa3d
00000210: 14c2 2b3e 0fdc 743c dc6a c4be e6d8 5f3e
00000220: 446d 713e a0f4 5cbe ebde ba3e 679b 553e
00000230: 1310 60be f992 2bbe 2529 c93d 7f28 03be
00000240: b2cd 8cbe ae20 49be 7ef7 623e e31f 4b3e
00000250: 1be5 883c 3c10 a8be 6acd c5be 3ab8 aabe
00000260: 254f bebe 06df 1cbd b6d7 153e 584a ebbd
00000270: 0597 50bd d97e 2abe 4aef 153e 13e7 963e
00000280: 01ba 293e 51ad 2f3e f398 abbe cded 3a3e
00000290: dded 0bbe 95d2 823e b657 2b3e 9c9f 98bd
000002a0: e1e6 573d 9904 8fbe e7de 85bc 401d 87be
000002b0: 0444 243e ff16 3bbc c8c5 bb3e 64a6 5fbe
000002c0: da1f a7bd e3dd 623d 299b c9bd 9f66 e93d
000002d0: fa04 89bd 5aba 36be d758 813e 1e74 a8be
000002e0: c8e4 9c3e 4c86 433d c7e7 853c cc38 8d3e
000002f0: f7b5 883e 7a43 7b3e cc41 2ebb c506 bd3d
00000300: 3bb2 7dbe 55da a0be 1bfb bd3d 0bc1 883e
00000310: 4c8e 8c3e 70ee babe c7cc 9ebe 77c9 debd
00000320: a8c8 a3bd 9e4e 283e 2a7e bdbe 9d8b 3bbd
00000330: 4b88 dabd 6cdd b4bd cd0f da3d 9f6b 23be
00000340: 8bf5 a3be 53bd b43e 9e70 85be d884 eebd
00000350: 67d6 2d3e 8df2 6f3e eb9e 04bd 1b82 2abc
00000360: 3865 ddbd bdb4 5dbc 0048 613d e305 893e
00000370: 5aac 60be 350f 9b3e b56b 543e b711 013d
00000380: 50b5 10be af7f 2fbe 307f 23be f3aa 33be
00000390: da1b 3b3e 84d2 b43e 172d 993c 1876 9e3e
000003a0: d3ee 613e 3d60 95be 5865 813d 074c bd3e
000003b0: a39b 94bc ee62 47be a897 a5be b1c7 06be
000003c0: eb5d 103e ffd5 8b3d 1760 183e 96ba 8bbe
000003d0: ac49 33be 59d3 dbbd a552 4dbe 5f5c 953d
000003e0: 5243 953e 9c62 023e 37f0 323e 5562 623e
000003f0: 026e 4abe 137e efbd 9370 98be 6c9d 393e
0.18293181 -0.15994568 -0.26120126 0.27954793 -0.34513646 -0.30212075 0.24468459 -0.21284214
-0.2910209 -0.15973923 -0.20218314 0.33233422 -0.18957986 0.2635236 0.12530014 0.16605487
0.2843117 0.13889222 -0.08368085 -0.26901397 0.1083647 -0.09154365 0.31103522 -0.26634073
0.103488036 0.099701315 -0.08319596 0.22460239 0.15969197 0.11792924 0.24110848 0.11684819
0.2716165 -0.16565172 -0.047024425 -0.086995155 0.24092957 -0.28875905 -0.3590448 0.2875079
-0.3017333 -0.21882334 0.25519416 -0.24535505 -0.025110211 0.28725117 -0.16452925 -0.1431793
-0.025510924 -0.21892652 0.091043 -0.14823392 -0.37097904 0.2521382 -0.033138935 -0.24949439
-0.20281072 -0.2954115 -0.22850507 0.01954456 0.30144718 -0.33474442 -0.23221375 -0.12342883
-0.36094093 0.19938982 0.08719881 -0.22521675 -0.13733914 0.09482677 0.3057255 -0.13188928
0.37756777 -0.11538629 -0.07091241 -0.2977086 -0.17591906 0.28427812 -0.09377172 0.2773468
-0.3275594 0.17149818 0.21771817 0.11219777 0.23284055 0.30865332 0.37511688 -0.21997376
0.34207255 0.055483475 -0.011244088 0.3001519 -0.19826663 -0.29520404 0.37722287 0.05147971
0.36492845 -0.3651661 0.20756364 0.047857206 -0.19744758 0.15494095 0.07828296 -0.13273679
0.24991779 -0.23966847 -0.1165006 0.25485143 0.37780657 0.36403912 0.12021411 -0.032882232
-0.160269 -0.35249567 -0.3696233 -0.32568702 0.16206142 -0.053498812 0.014117915 -0.083917595
0.33767018 0.2228219 -0.34794775 -0.04092362 -0.17835169 -0.20065694 0.3488865 0.024842454
-0.117271714 0.08558226 -0.368321 0.122557625 0.16773254 0.014945044 -0.38362777 0.21860084
0.23576838 -0.21577692 0.36498198 0.20860063 -0.21881132 -0.16755284 0.09822301 -0.12808417
-0.27500683 -0.19641373 0.22164723 0.19836383 0.016710809 -0.32824886 -0.3863328 -0.3334368
-0.37169757 -0.03829863 0.14633068 -0.11488789 -0.050925273 -0.16649951 0.14642063 0.2947317
0.16574861 0.17155959 -0.33515128 0.18254776 -0.13664956 0.25551286 0.16732678 -0.07452318
0.052710418 -0.27933195 -0.01634164 -0.26389503 0.16041571 -0.011419057 0.36674333 -0.21840817
-0.08160372 0.05538739 -0.098440476 0.113965265 -0.06690402 -0.17844525 0.25263092 -0.3290109
0.30643296 0.047735497 0.016345872 0.27582395 0.26701328 0.24537459 -0.002658951 0.09229807
-0.24775021 -0.31416574 0.0927641 0.2670978 0.27452314 -0.36510038 -0.31015608 -0.1087827
-0.079972565 0.1643624 -0.37010318 -0.045787442 -0.10670527 -0.08831295 0.10647545 -0.15959023
-0.32023272 0.35300693 -0.26062483 -0.11646432 0.16976319 0.2343237 -0.03237812 -0.010406996
-0.108103216 -0.013531861 0.055000305 0.26762304 -0.21940747 0.3028504 0.20744212 0.031511035
-0.14131665 -0.17138551 -0.15966487 -0.1754568 0.18272343 0.3531686 0.018698258 0.30949473
0.2206376 -0.29174986 0.06318158 0.36972067 -0.01814062 -0.19471332 -0.32342267 -0.13162114
0.14098327 0.06827926 0.14880405 -0.2729079 -0.17508572 -0.10733671 -0.20051058 0.07293009
0.29152924 0.12732929 0.17474447 0.22107823 -0.19768527 -0.116939686 -0.29773387 0.18126458

bias f4 [100]
00000000: 5120 c43c e2a7 223e 7a1d bbbe b9e9 8f3e
00000010: 39cd b5bc 85a1 43be 32dd 8a3e e47a b0be
00000020: 7749 99be 42eb af3e 945d b1be 3590 8c3d
00000030: bd8f 863e bb6a 8dbe 17fd 413e ea2a 653e
00000040: a4e4 7cbe 7948 51be 4e2d 973d 92bf 763e
00000050: 6f07 533e 00cd 2cbe ba4d 403e 716f 123e
00000060: 7f88 a1bd 12e2 fc3d 9086 873c 7fb4 a03e
00000070: 0a78 61be 375e 873c b318 f3bd 669b 873e
00000080: 5db4 bf3e 8c3a a6be 4580 1e3e 635b b03e
00000090: 3df3 82be bc9e c03d eeea 8bbe 7b20 f93d
000000a0: 1787 4ebc 26ac 15bd 21b3 9d3e 3ec4 833e
000000b0: 7fbf 0d3c 5986 4c3e b19b a63e 8334 153e
000000c0: dff2 a4bb 5222 b7be 4c2f 8c3e e726 56be
000000d0: b183 4c3e 3af0 9fbe 9875 f93d ef69 7b3e
000000e0: 275e a3be 5e6c 39bd 23f3 b43e ff21 5cbe
000000f0: d8ec 76bd 063e 57bc a0b9 403d 2852 103e
00000100: 05cc 91be 169a b8be 3237 27be 227c 36be
00000110: c749 0d3e 50e2 a23d 159d 503e 7f1a 6bbe
00000120: 0783 873e 14f2 f93d 356a 353e 344d 12be
00000130: 70d4 c1be 8e8e 1ebe c4ae 34be 81aa fcbc
00000140: 2144 a33e 2447 ddbd 0d0d 0c3d 6624 98bd
00000150: fd2d 643d 2983 b03e f6f0 5bbe fe97 e9bd
00000160: 1045 98be 4cab ef3d 7751 a13e ace8 50be
00000170: c230 acbe 6a00 debd 8547 7dbe 658b c53d
00000180: f933 7bbe 0e31 8f3e d7f3 203e 92c1 98be
0.02394119 0.15884355 -0.36545926 0.28108004 -0.022192584 -0.19104584 0.27121884 -0.34468758
-0.29938862 0.34359175 -0.34641707 0.06863443 0.2628154 -0.2762049 0.18944202 0.22379652
-0.24696594 -0.20437802 0.07381688 0.24096516 0.20608304 -0.16875076 0.1877965 0.14300324
-0.07887363 0.12347807 0.016543657 0.31387708 -0.22018448 0.016524417 -0.118699454 0.26485747
0.37442294 -0.32466543 0.15478618 0.34444723 -0.255762 0.09405276 -0.27327675 0.12164398
-0.01260545 -0.036541127 0.30800727 0.25735658 0.008651613 0.19973125 0.32540658 0.14570813
-0.0050338353 -0.35768372 0.27379835 -0.20913278 0.19972111 -0.31237966 0.12180632 0.24552129
-0.3190777 -0.045269363 0.3534175 -0.21497343 -0.060284466 -0.013137346 0.047052026 0.1409384
-0.28475967 -0.36055058 -0.16329649 -0.1782079 0.13797675 0.07953322 0.20372422 -0.22959326
0.26467153 0.12204376 0.17716296 -0.14287263 -0.3785739 -0.15484068 -0.17644793 -0.030843021
0.31887916 -0.108045846 0.034192134 -0.074288175 0.05570792 0.34475067 -0.21478638 -0.11405943
-0.2974019 0.11702594 0.31507465 -0.20401257 -0.3363095 -0.10839923 -0.24734314 0.09645728
-0.24531545 0.27967113 0.15718018 -0.29835182

weight f4 [3, 50]
00000000: 62d5 13be 8d98 183d 51d6 a0bd ba2c 553d
00000010: ddd9 01bd dd50 f9bd d0a5 86bd ad22 dabd
00000020: 992f b13d 160d 233d 8985 c13c 4ca8 d53d
00000030: 3d7d 0b3e 1cd1 683d 8c87 d9bc 36de a7bc
00000040: 5e1b d43d 38ee 963d f6d2 5f3d 15d5 c7bd
00000050: 5482 d63b 7145 debd 78c4 2cbd b245 0ebe
00000060: 7c67 f6bd 33a6 f03c 73ee 13be f4ce efbd
00000070: bd87 7abd 0eca e73d 53a5 783d 83c2 cb3d
00000080: 5b13 dabb 98d0 0dbe db3f 9dbc 9f2f 0cbe
00000090: a291 8f3d 7ace 4b3c fa6c 0dbe 3ca4 0c3e
000000a0: 40cb 65bd d9dc 7b3d 325e 1c3d 6315 363d
000000b0: 090c 003e bd13 e0bd 8d89 a3bc 139f ee3d
000000c0: 9e44 f33d c7df d6bd ac17 30bd 94dd b1bd
000000d0: 16bf 26bb 9f4f dc3d 9505 7a3d a281 083d
000000e0: 69c1 a4bc f52f a1bc c6a4 4fbd 9666 d9bd
000000f0: 940b 83bd f505 bdbd 5774 6d3d 5367 d73d
00000100: f9b7 acbd 0781 2a3d 8003 473b f293 d0bd
00000110: 0199 3e3d 9f0c 9e3d 547e b53d 9d3c b7bc
00000120: 9892 3d3d 980b 47bd 6241 cbbd d5fa 74bd
00000130: 918b 89bd 0ff4 a2bd 7333 c7bd 165b 54bc
00000140: ec17 c5bd 8791 85bd 75da 06be ef00 c43d
00000150: a193 023d 54af be3c f99d febd f825 ee3a
00000160: 52d6 e63d c047 8cbb 33e1 b7bd 819f d03d
00000170: 6964 68bd 39e1 d23c 2655 7c3d 298f 52bc
00000180: 2189 c33d 9154 073e 9842 ffbc ccf2 fcbd
00000190: ddec 0f3d 58ea 6a3d aa88 cfbd 2561 bdbd
000001a0: b8cf 9fbd a18d 643d ba4a 0fbd 6c40 20bd
000001b0: 2a6d 74bd 2485 143e e7f6 c1bd 2117 bc3d
000001c0: b746 e53d 2440 ebbd ff7b 713c 8243 1a3e
000001d0: 95a4 a43d 1cf1 1b3d 69a7 843b 6a3e eebd
000001e0: b918 8d3d 5e6d fe3d eee0 bf3c 354e 97bd
000001f0: 97f9 d43c f908 023e 5913 1fbd 5092 5cbc
00000200: 06bb b1bd c8d6 70bd 0d83 573d 787e 563c
00000210: 8dfd 77bd ac19 99bd 5a55 183e 2991 4b3d
00000220: 3354 93bd 0567 e23c 1e2b 03be 3dd8 573d
00000230: 63fa 57bd c2a1 f93b c4c8 683d f4e3 8bbc
00000240: 1a07 e43d e7ee 863d dc42 abbd bd6a 3fbc
00000250: f08f d3bc b316 9f3d
-0.14436868 0.03725486 -0.078533776 0.052044608 -0.03170191 -0.121736266 -0.06574595 -0.10651145
0.08651657 0.0398074 0.023623245 0.10432491 0.13621993 0.056840047 -0.026553892 -0.0204917
0.103567824 0.07369655 0.054644547 -0.09757439 0.006546298 -0.10853089 -0.042179555 -0.13893774
-0.12031457 0.029376125 -0.1444643 -0.11709395 -0.061164606 0.11317836 0.06070454 0.099492095
-0.0066551394 -0.13849103 -0.019195488 -0.13690041 0.07010199 0.012439365 -0.13811103 0.13734525
-0.056102037 0.061489914 0.03817577 0.04445399 0.12504591 -0.10941265 -0.01996305 0.11651435
0.11878322 -0.10491901 -0.042991325 -0.08684841 -0.0025443486 0.10757374 0.06104048 0.033326752
-0.020111756 -0.019676188 -0.05069425 -0.1061527 -0.06398693 -0.09229652 0.05797228 0.105177544
-0.084335275 0.041626956 0.0030367076 -0.10184468 0.046532635 0.07717251 0.08861986 -0.02236777
0.04628238 -0.04859504 -0.0992458 -0.059809525 -0.06716073 -0.07956707 -0.0972661 -0.01296117
-0.09623703 -0.06521898 -0.13169272 0.095704906 0.03187907 0.023276962 -0.12432475 0.0018169275
0.11271347 -0.004281014 -0.089785 0.10186673 -0.056736384 0.02574216 0.06160464 -0.012851515
0.0954764 0.13215853 -0.031159684 -0.12350997 0.035138 0.057352394 -0.101334885 -0.092470445
-0.07803291 0.05579913 -0.034983374 -0.039123937 -0.05967442 0.14503914 -0.09470921 0.09184099
0.111951284 -0.11486843 0.014739036 0.15064815 0.08039204 0.038071737 0.004048277 -0.11632998
0.06889481 0.12423204 0.023422685 -0.07387964 0.02599792 0.12698735 -0.03883681 -0.013462618
-0.0867825 -0.05879858 0.052615214 0.013091676 -0.06054454 -0.074756 0.14876309 0.049698982
-0.07193794 0.027637014 -0.12809417 0.052696455 -0.05272902 0.00761816 0.05683209 -0.01707647
0.11134167 0.06588536 -0.08362362 -0.011683163 -0.02582547 0.077680014

bias f4 [3]
00000000: 1dcd 063e 8099 b4bd 9793 77bd
0.13164182 -0.0881834 -0.060443487

weight f4 [10, 50]
00000000: 6483 263e 5572 a5be 66ed a7bd e4f2 05c0
00000010: 8791 45bf 32f1 62bf ae55 983d 01d1 babe
00000020: 0f14 443e 730c 7c3f 7554 473d df44 f7be
00000030: 7551 c0be c064 33bf b305 babd 6938 11bf
00000040: 4f7c 2c40 27a9 67bf dcb4 eebd 7c4e 5f3e
00000050: cb5a 37bf 1310 2a3e 36ed 05c0 cfd4 c73f
00000060: 4c3a 90bd 3362 303f 7da3 9f3f a415 473f
00000070: 32d5 2ebe ca45 233d 1a2f c53e 9d5b b83f
00000080: 27ff 7c3f 4b01 033e 0a62 f83d 2007 513f
00000090: ddfd 1abf 0f2e aa3e 880b 3a3e 4d92 f6bf
000000a0: 52f7 0c3f 3dab 153e 4801 f93e c758 0ec0
000000b0: 3788 a9be d99a e73e 6b43 44bf 0d2f b43e
000000c0: 93d9 aabf 46f9 80be d339 42bf 79bb cb3e
000000d0: 7f58 b5bf 9e8d 913f 6475 4d3d cc70 39bf
000000e0: 451a 01bc 17a1 1b3f 5140 61bf 80f2 7b3e
000000f0: 3534 8e3e a372 c73f 3e27 893e eeb4 babe
00000100: 655e 44bf 6783 0640 d689 28c0 b618 3d3f
00000110: d20b a43f 2f5e b03f 6289 2bbe 1891 20c0
00000120: c031 cb3f 9dd4 c9bc c7c3 82bf 90b4 90be
00000130: 73d3 f0bf b98b 413f d656 793e 0379 7f3f
00000140: 498d c2bf 9e31 cebf fe47 943f c185 b83f
00000150: 64e8 093f 5d7c bcbf 9531 fa3e 7e9f 7cbf
00000160: 586e 0dbf 8a61 303f 85b3 d8bf d27b 91bf
00000170: e3da b1bd b31e c9be 3236 3140 a860 22be
00000180: 34d9 293f 704c 9cbe 70e9 163f e435 9b3f
00000190: aaf8 8bbe 5bb9 48bf 2b00 febe 212b aa3e
000001a0: 5442 3ebd a8e1 2ebc aac1 533f dac9 913d
000001b0: 2506 b63d f381 a93e f17f 1c3f 1d79 723e
000001c0: 1619 a93d f844 f0be 9093 fbbe fef5 813f
000001d0: 51eb 3fbf 8c7e 953f ee98 2a3f 2747 643f
000001e0: 68a2 3b3f da9e e0bf f729 fcbe 41a6 ccbe
000001f0: 65b3 e43e f676 5ebf 4f32 98bf b5ad 3c3f
00000200: 8c8c 183d 2ff1 c03f 51f0 c0be b9c7 d7bf
00000210: 9949 833e f81c f2bf 3e01 7f3e a3c5 2fbf
00000220: 09e2 86bd 4372 adbf 3eb2 49bf e896 0f3e
00000230: a298 c43d df07 16be de73 9ebe 0d83 46be
00000240: 398f a63f 78b0 d5be 2d8c 843f be07 0e3e
00000250: 8687 013f 4e74 51bd d004 af3e a946 c4bf
00000260: 7fd5 47bc 8a96 2bbf 9139 353f 09e7 c7bf
00000270: 4726 583f 2cb6 1abf 8bca 813e 44fe 853f
00000280: 136b c83f 21de e83e 7a83 653f a6bb 21bf
00000290: c605 8dbf 30cd a63f ab49 97bf 65b9 4ebf
000002a0: 645c 723e 666c fa3f 8ce2 4e3f 236d 03bf
000002b0: 6730 b8be 4ca6 573e 910f a13e fa3f 90bd
000002c0: 5409 eabe 5b3b b43f e7e5 15bf 713c e33e
000002d0: f5f3 af3e 4953 f9bf bc10 ce3f 8cfa a5bf
000002e0: c9da 813e 8b98 8cbe a652 7abe a9eb dfbe
000002f0: 2098 403f f42c 37bf ee92 9ebf fb93 acbe
00000300: 7706 9fbf ebb5 6abf 4a0d 9bbd aa42 b63d
00000310: 076b 443f 6d8e 253f da3f 3f3c ecda 1cbf
00000320: 5d7e 3e3f 2386 44c0 149c cf3e 15b4 fa3d
00000330: f749 9ac0 ef8a ef3f 6f74 253f 6379 5bc0
00000340: 8ec5 50bf 4a1a 98bf 88a6 b0bf 1988 55c0
00000350: 15d4 12c0 5f5c 35c0 0517 2640 9fc5 c5be
00000360: fa80 3340 8c78 0340 f0da 5440 bf13 1fc0
00000370: 5291 4640 2f74 2c40 6d14 683f e7d8 2040
00000380: 8f0b 8cbf dd26 1abf 6f83 e93f 6811 ccbd
00000390: 69e8 c13f 6e7e bb3e ca69 2a3f 3c6d 3f40
000003a0: 2569 96bf c75e 4cc0 fda9 2c3e 506d 6140
000003b0: 7062 57c0 3733 3140 65d7 ddbf 3972 fcbe
000003c0: 2647 2ebe 81f5 e63f 1f9c 48be e460 bc3d
000003d0: bbe3 b83f 0fac 883f 7dda d6be 8fce 34c0
000003e0: 77dc 563e 6589 57c0 fdcf 823f c08d 0f40
000003f0: 2a6e 2c3f ba80 64c0 c166 babf 5fc6 fdbe
0.16261059 -0.3231379 -0.08199577 -2.0929499 -0.7717518 -0.88649285 0.07438217 -0.36487582
0.19148277 0.98456496 0.04866453 -0.48294732 -0.37562147 -0.7007561 -0.09083118 -0.567267
2.6950872 -0.9049248 -0.1165559 0.21807283 -0.71622914 0.16607694 -2.0926032 1.5611819
-0.07042369 0.6889984 1.2471768 0.77767396 -0.17073515 0.039861478 0.38512498 1.4402958
0.9882683 0.12793462 0.121280745 0.81651497 -0.60543615 0.33238265 0.18168461 -1.9263397
0.5506488 0.14616103 0.4863379 -2.2241685 -0.33111736 0.45235327 -0.7666537 0.35192147
-1.3347648 -0.2519018 -0.7586948 0.39791468 -1.4167632 1.1371343 0.05016078 -0.7243774
-0.007879798 0.6079268 -0.87988764 0.24604225 0.27774206 1.5581859 0.26787752 -0.36466163
-0.76706535 2.1017702 -2.6334128 0.7386583 1.2816107 1.3778743 -0.16751626 -2.5088558
1.5874557 -0.024637515 -1.0215997 -0.28262758 -1.8814529 0.75603825 0.24349532 0.99794024
-1.5199367 -1.6108892 1.158447 1.4415818 0.53870225 -1.4725453 0.48865953 -0.98680866
-0.55246496 0.6889883 -1.6929785 -1.1365912 -0.086843275 -0.39281234 2.7689328 -0.15857184
0.6634705 -0.30527067 0.5894995 1.2125821 -0.27338153 -0.7840783 -0.49609503 0.3323603
-0.046449974 -0.010673918 0.8271738 0.07118578 0.08887891 0.33106956 0.61132723 0.23679014
0.08256738 -0.4692762 -0.4913602 1.0153196 -0.7496844 1.1679244 0.666396 0.8917107
0.7329469 -1.7548478 -0.49250767 -0.39970592 0.44668117 -0.8690027 -1.1890353 0.73702556
0.03724341 1.5073603 -0.37683347 -1.6857826 0.25642088 -1.891509 0.24902818 -0.68660945
-0.065860815 -1.3550495 -0.787876 0.1402241 0.09599425 -0.1465144 -0.30947775 -0.1938593
1.3012458 -0.41736197 1.0355278 0.13870141 0.5059742 -0.051136307 0.3418336 -1.5334064
-0.0121968975 -0.6702658 0.70790964 -1.5617381 0.84433407 -0.6043422 0.2534984 1.0468221
1.5657676 0.4548197 0.8965374 -0.63176954 -1.1017387 1.3031368 -1.1819357 -0.8075164
0.23668057 1.956433 0.80814433 -0.51338404 -0.35974428 0.21059531 0.3145719 -0.070434526
-0.45710242 1.4080614 -0.5855393 0.4438205 0.34365812 -1.9478542 1.6098857 -1.2967086
0.25362232 -0.2746013 -0.2444559 -0.43734482 0.75232124 -0.7155297 -1.2388589 -0.3370665
-1.2423848 -0.91683835 -0.07570894 0.08899434 0.7672581 0.6467045 0.011672938 -0.6127155
0.74411565 -3.070687 0.40548766 0.12241379 -4.821529 1.8714274 0.6463079 -3.4292839
-0.81551445 -1.1883023 -1.3800821 -3.3364317 -2.2941945 -2.833763 2.595155 -0.38627335
2.804747 2.0542326 3.325863 -2.4855802 3.1026196 2.6945913 0.9065617 2.5132387
-1.0941027 -0.6021555 1.8243235 -0.099642575 1.5149051 0.36619896 0.6656767 2.9910421
-1.1750838 -3.1932847 0.1686172 3.522297 -3.3653831 2.768751 -1.7331358 -0.49305895
-0.17019328 1.8043672 -0.19590805 0.09198168 1.4444498 1.0677508 -0.41963568 -2.8251073
0.20982538 -3.367761 1.0219723 2.2430267 0.67355597 -3.5703568 -1.4562608 -0.49565408

bias f4 [10]
00000000: fd6f 593d 2fa0 a83d 305d babe d25d 8c3e
00000010: a5b2 06bf dd31 203f 7014 ea3c d582 273f
00000020: 98c9 88be 3f2d c43e
0.053085316 0.082336776 -0.3639922 0.2741533 -0.5261634 0.62576085 0.028574198 0.6543401
-0.26716304 0.3831577

weight f4 [50, 7]
00000000: ac58 c3be 4daa c5bf 1d92 413e 4acd c73f
00000010: a384 78c0 2869 613f c5b6 5abf 8916 41be
00000020: e572 cfbf 58a5 f83d e3ee 0ebf 4677 afbf
00000030: 0680 7d3f d149 dd3c ffae 58be 93e8 00c0
00000040: 0b20 c73f dcb1 d53f 2da3 413f 9a4e 10c0
00000050: c98e 613f e2eb b13b 89ab 16c0 faec 7dbd
00000060: f1e8 0640 2be1 773f 6f81 5cc0 dd5f 0ebf
00000070: 572d 0cbd 7288 803f a803 01c0 79f4 eb3e
00000080: 712a c3bf cff7 bf3e 667f efbf 8b21 f6be
00000090: 869d 0c40 a013 a13e 316c 06c0 5514 0740
000000a0: ff3e 9a3f dd78 0b40 0367 b03d 892b 983f
000000b0: c214 77bf bd3c 083f 6e12 33c0 5197 f2bf
000000c0: aa05 003f 0902 4e3e 6b9c 3a40 c5cb 983f
000000d0: 6798 c3bf 69ec 2640 9699 64be 5055 9a3f
000000e0: dbcd 45be 8513 bbbf 7d25 403f 41d3 e73f
000000f0: 9756 2a40 cb0c d2bf 70f8 5fbc 5bfc 5fbf
00000100: 3503 1640 a4be dcbd 792e 8b3f 5cbe 2c40
00000110: 405f fb3e 0f1d a33f a2d2 603d 782c ee3f
00000120: f163 fc3e 880d 333f ba67 0cc0 7e35 79bf
00000130: a217 55bf 5f49 5abd 7031 843f 23cf d4be
00000140: 2a4a fdbf 3f60 e83f 545c f73d 7704 d03f
00000150: 0737 ee3d 05a4 debf 5235 1e40 ae78 2abe
00000160: dcee a13f 0474 743f 9bb6 133f 44a8 843e
00000170: 1304 8b3f a4aa d3bf 3453 00be 8cf3 a0bf
00000180: 22c9 d1bd cfd6 633f d446 023d 2524 acbf
00000190: 123e 9e3f 1cc4 8d3f 1b52 0e40 cdd6 763f
000001a0: 8e15 f53f f32b f8bd dc6a 0440 74ff 6e3f
000001b0: 9bfe e4bf fb4b 31bf 4c5d 473f e501 10bf
000001c0: b86b 0d3d 44a2 a43f 6b9d 563f a1e2 293d
000001d0: 6c8f 73bf 4672 313f 640e 79bf 018a 21bd
000001e0: 0a88 57bf 0f2a 31c0 2c35 f83f 490c 03bf
000001f0: 2e33 f8bf 9289 54bf 26a9 8c3d f40f b53f
00000200: 55fc 96bc f01a a4bf 2f46 cc3e a933 d4bf
00000210: d2a3 5fbe 9b67 f1bd 1da7 1540 27f0 06bf
00000220: 18af 0ac0 fe16 06bf c60b 913f 27cf 08c0
00000230: a5d2 3ebd 5a24 e13f e732 e3be 1fb9 433f
00000240: 5c4a 2a3f 76a0 b8bf 3179 6bbd c635 d0bb
00000250: 41fe 79bf cf3d d8bf 839d 44bf 5fed 99bf
00000260: 398a 733f be69 79bf b52c 24bd 93d7 05c0
00000270: 028e 103f e16f 0340 820e bebf 940d fcbf
00000280: b515 123e 7a12 993d f9af dbbf ad64 04c0
00000290: 7732 e03e f1f8 1ac0 d156 aebe 34fe 16c0
000002a0: 4178 db3e 6b49 3c3e 0dfc 6bbe 3b5c 663f
000002b0: 46f2 e5bd e8e2 27c0 27c2 363f d06f b43d
000002c0: 08c1 a13f 3d73 06c0 050f 413e ad74 ddbf
000002d0: ceea 083f 8cc5 2fbd ec02 993d 3ff0 b13f
000002e0: 5232 b13e df14 bdbf 110f b3be a27e 88bf
000002f0: c95c 733f 4312 cebc ffc6 d7bf 3337 52bf
00000300: 5882 bd3f 71b2 763e 20ab ecbf 6b42 a4bf
00000310: b1d5 8c3e 5f6e c03f f866 d03f a153 b23e
00000320: 3a60 ef3f 7046 d43f 8166 ed3d 62a5 bebe
00000330: 3319 9abf 1181 00bf fe71 733f 7595 00c0
00000340: 58ee bb3f 971d 4fbe 74d8 fcbe a92e 403f
00000350: 680d 02bf f568 15bf 1f4d c6bd 9419 6bbe
00000360: 8740 7abe 0afe 033d db59 f73f 7090 d3bd
00000370: 120e debf fb29 ed3e 6fe0 21bf 56da 8ebf
00000380: 8f03 bc3e a8d0 cb3f 0e80 1dbf 6865 a3bf
00000390: 9c2f e3bf 43ee 913f d008 18c0 8e62 debd
000003a0: 8e3a f53f b0bd 25c0 3653 d63d 8e71 7cbf
000003b0: b9d8 cebe 559d 2abf 2fb8 5fbe 9349 753f
000003c0: a7de 9b3f 390e 59bf a554 0540 7d37 99bf
000003d0: 1792 a7be 02eb 0c3e d4e9 e23f bdba 86be
000003e0: c2e7 003f 2dac 6d3f feb7 d4be ea96 ce3e
000003f0: 0568 8c3e 571d 563f 5c8e d3be 4386 903d
-0.3815359 -1.5442597 0.18903394 1.5609524 -3.8830955 0.8805108 -0.85435134 -0.18856253
-1.6206938 0.12140912 -0.5583326 -1.3708274 0.99023473 0.027012737 -0.21160506 -2.0141952
1.5556654 1.6694903 0.7563961 -2.2547975 0.881085 0.0054297308 -2.3542197 -0.061993577
2.1079676 0.96827954 -3.4454 -0.55615026 -0.034222927 1.004164 -2.0158482 0.46084955
-1.5247327 0.3749375 -1.8710754 -0.48072466 2.1971145 0.31460285 -2.1003535 2.110616
1.2050475 2.179252 0.08613398 1.1888286 -0.9651605 0.5321768 -2.7979999 -1.8952428
0.5000864 0.20117964 2.915797 1.1937186 -1.5280885 2.6081793 -0.22324213 1.2057285
-0.19316809 -1.4615332 0.750572 1.8111345 2.661535 -1.6410154 -0.013670072 -0.8749444
2.3439457 -0.10778549 1.0873557 2.6991186 0.49096107 1.2743243 0.054888375 1.8607321
0.49295 0.6994252 -2.193831 -0.9734725 -0.83239186 -0.05329263 1.0327587 -0.41564283
-1.9788258 1.8154372 0.12078157 1.6251363 0.116315894 -1.7393805 2.4720044 -0.16647598
1.2651019 0.95489526 0.5770051 0.25909626 1.0860618 -1.653645 -0.1253174 -1.2574325
-0.10243441 0.88999647 0.03180583 -1.344853 1.2362692 1.1075473 2.2237613 0.9642151
1.9147203 -0.12117758 2.0690222 0.9335854 -1.78902 -0.6925656 0.77876735 -0.5625289
0.034526557 1.286202 0.8383395 0.041475896 -0.9514072 0.6931499 -0.97287583 -0.03943825
-0.84191954 -2.768192 1.9391227 -0.5119062 -1.9390619 -0.83022416 0.068682 1.4145494
-0.018430868 -1.2820721 0.39897296 -1.6578265 -0.21839836 -0.11787339 2.3383248 -0.52710193
-2.1669369 -0.52378833 1.1331718 -2.1376436 -0.046587605 1.7589219 -0.44374773 0.7645435
0.66519713 -1.4423969 -0.057488624 -0.0063540665 -0.97653586 -1.6893862 -0.76802844 -1.2025565
0.95132786 -0.97426975 -0.0400817 -2.0912826 0.56466687 2.0537035 -1.4848177 -1.9691644
0.14266093 0.07474227 -1.7163078 -2.0686448 0.43788502 -2.4214442 -0.3405061 -2.3592653
0.42865184 0.18387382 -0.23045368 0.8998448 -0.112278506 -2.6232243 0.7139 0.08810389
1.2637033 -2.1007836 0.18853386 -1.7301232 0.53483284 -0.042913005 0.074712604 1.3901442
0.34608704 -1.4771994 -0.34972432 -1.0663645 0.95063454 -0.025155192 -1.6857604 -0.8211548
1.4805403 0.24091507 -1.8489723 -1.2832769 0.27506784 1.5033683 1.6281424 0.3482943
1.8701241 1.6583996 0.11591817 -0.37235552 -1.203894 -0.5019694 0.95095813 -2.0091221
1.4682112 -0.20226131 -0.4938389 0.750712 -0.50801706 -0.58363277 -0.096826784 -0.22958976
-0.24438678 0.032224692 1.9324297 -0.10330284 -1.7348044 0.4632109 -0.63233083 -1.1160381
0.36721465 1.5923052 -0.6152352 -1.2765322 -1.7748904 1.1400837 -2.3755379 -0.108586416
1.9158494 -2.5897026 0.1046509 -0.9861077 -0.4039972 -0.6664632 -0.21847604 0.9581539
1.2177323 -0.8478733 2.0832913 -1.1970059 -0.32728645 0.13761523 1.7727609 -0.26314345
0.50353634 0.92840844 -0.41546625 0.40349513 0.2742311 0.8363852 -0.4131955 0.070568584

bias f4 [50]
00000000: 7ff8 b73f 7a22 f53d b642 1740 4ba8 27c0
00000010: 696f 06c0 4857 21c0 6350 05be 1c74 3a40
00000020: 0511 1740 7670 eabf f721 3140 a35a 1940
00000030: 6cc0 0cc0 9655 2abf af3d df3f efc0 c8bf
00000040: 2003 febf d395 35c0 5d3a 0dc0 c5b4 16c0
00000050: 374e 30c0 836f 10c0 7898 2fc0 2344 debf
00000060: e08d c03e 4a14 f13f d023 0840 d027 b53f
00000070: 5c67 13c0 9cfb df3f db13 e8bd db24 22c0
00000080: 5afd 19c0 a609 70bf a70c 0840 9ea3 0640
00000090: a2dc 46c0 813d 1dc0 f512 1040 b53c c4bf
000000a0: 4e6d b03f eef7 0b40 d9aa a5bf 5556 70bf
000000b0: 28e4 30c0 d661 91bf 5921 0240 d731 21c0
000000c0: 82d5 0dc0 3a22 aebf
1.437271 0.119694665 2.3634467 -2.6196468 -2.10055 -2.5209522 -0.13018946 2.9133368
2.3604138 -1.831557 2.767698 2.396157 -2.1992445 -0.66536844 1.7440699 -1.5683879
-1.9844704 -2.8372695 -2.2066872 -2.3547833 -2.7547739 -2.2568061 -2.743681 -1.7364544
0.37608242 1.8834317 2.1271858 1.4152775 -2.3031836 1.749866 -0.11331912 -2.5334995
-2.4060884 -0.9376472 2.1257722 2.1037364 -3.1072164 -2.456879 2.251157 -1.5331026
1.3783357 2.1870074 -1.2942764 -0.9388173 -2.7639256 -1.1357982 2.0332854 -2.518667
-2.2161565 -1.3604195

weight f4 [2, 10]
00000000: 57be a03f 9b71 0bc0 d9ff 78bf d550 c7bf
00000010: 68b5 953f cabf e93f 20c9 a7bf 4348 df3f
00000020: 7180 92bf 2d80 febe 967e 70bf d567 f53f
00000030: ec6c d33f 7776 ad3f d4fa 9f3f 9061 80bf
00000040: ffec db3f e084 d03f 0cf2 be3f 52e5 81bf
1.2558087 -2.178809 -0.9726539 -1.5571543 1.1695986 1.8261654 -1.3108253 1.7443928
-1.1445447 -0.49707165 -0.93943155 1.9172312 1.6517615 1.3551778 1.2498422 -1.0029774
1.71817 1.629055 1.4917617 -1.0148108

bias f4 [2]
00000000: 4efd 6cbd 0fc7 213e
-0.057858758 0.15798591

weight f4 [10, 50]
00000000: 95f3 5f3f 876f 65be 4b9a 48be 8381 8cbe
00000010: 8431 943a aea4 203e fc20 adbe 8dad c93e
00000020: 5233 4f3e 9ebd ddbe 2c73 c83e 9d37 8f3e
00000030: 51f4 383e 02cd 1abd 236c 0d3f 55f3 2cbe
00000040: 2c43 6b3f 07ee f83e 5583 5abf 5f64 b03e
00000050: 4343 95be 18c0 8a3f 7775 22bf e9cd d4bd
00000060: 112c 4cbe 9f99 19be 6bfe a7be 9aa7 babd
00000070: 7fbb a63e e2ee 043f ad4b 03be 26c4 0c3e
00000080: c079 233f fc82 65bf ee59 4ebf 7166 a63e
00000090: 083b d1be 4943 67be 8b0b 913c 7442 393f
000000a0: 6510 81bd 1663 383e 7d5e 1cbe 7715 63bf
000000b0: dde9 c03e 48c7 213e 655b a6be 4802 27bf
000000c0: 5036 21be 6f28 c4be bad1 b6bf 8fb7 dabf
000000d0: 0b13 5b3f a7d6 8f3f d17a a2bf fce6 853f
000000e0: f642 943f 7960 c4bf 4939 99bf 8cde 8b3f
000000f0: 1d65 ecbf 0797 843f 5b84 c3bf fcf6 af3f
00000100: 0af4 c7bf 31f4 453f dc46 a4bf 2daa f6bf
00000110: 9f62 a03f 7efa c3bf 0c12 333f 3b16 2bc0
00000120: 34e0 0d3f 6f27 0540 04aa b43f 0087 8b3f
00000130: 371d 3e3f badd 303f 05fb c2bf 3196 c9bf
00000140: 045f 353f b39e 09c0 7ceb 03c0 c685 cc3f
00000150: ce65 cb3f c16e 16c0 7465 ed3f fe73 a53f
00000160: 1e58 a93f 6b20 eabf d613 99bf 4eb7 f0bf
00000170: df10 1b40 c9af fa3e d0a7 bbbf 4148 c4bf
00000180: 6bdb 993f 6bca 0140 1299 953f e3d3 0240
00000190: eea4 a93f 0567 cf3f da03 85bf 7c0b 9abf
000001a0: bc5f 5b3f f550 62bf f3d5 91bf a085 b33f
000001b0: d594 a33f 0bdc 8cbf 3dc3 c63f dd03 37bf
000001c0: 4e21 bc3f 2268 91bf 0c1c bf3f ef85 44bf
000001d0: db6a d03f 593c ca3f 1bd2 8bbf b170 df3f
000001e0: 0123 44bf e25c dc3f 55fc 99bf b6c7 d1bf
000001f0: 3625 90bf 382b 8ebf 4132 53bf c281 05bf
00000200: c7e0 c23f 8d29 df3f 363f 49bf 89d0 ac3f
00000210: be6c c43f 2b3e ddbf 2a66 d2bf d659 0c40
00000220: 73aa c6bf 097c 80bf 2a53 94bf a0ea d03f
00000230: 2e51 743f 5163 d83f cfe1 f0bf 5015 80bf
00000240: f3a0 b13f b02c 4c3f f807 c1bf 4f62 f5bf
00000250: 808a 9ebf c04c e8bf 48bd db3f 3103 6f3f
00000260: be3e 09bd 2ede efbe 362e 723f 5dc3 003d
00000270: c6cc 02bf 27d3 973f bc8b 6a3f 218d c2bf
00000280: 2e86 483f 6491 60bd a14b 1740 54af a5bf
00000290: 6e70 053f 7792 79bf 3543 bf3f 8294 923f
000002a0: afe2 d3be 589d b93f 1b18 8cbf be03 d93f
000002b0: e640 cfbe 3df6 acbf c5e9 a9bf 4d10 a5be
000002c0: ed00 41bf fb01 d1bc 03d3 f23e aac1 953f
000002d0: 8b27 dcbe 0639 993f 867b a93f cfd7 9bbf
000002e0: afca 84bf e817 b53f c119 85bf af0b 81bf
000002f0: 58e7 c3bf 185e 9e3f f2db 0740 6be2 983f
00000300: 125f adbc f1d3 06bf 61ed b23e a2de 203f
00000310: 4738 33bf b160 74bf 202f 08bf 2c0c b3bf
00000320: 3f27 363f 2b9d 643b d19d 82bf 39bf cabe
00000330: 7eaa 803e 5411 66bf 315b 06c0 86a2 433f
00000340: 07ef 7a3e 798c 14c0 b198 913f 6e87 10c0
00000350: 3967 403f 02d6 a8bf 9cb6 183f a41f 22c0
00000360: 663b c73f d768 853f e639 87bf 7022 cf3e
00000370: 3e74 34bf e326 06bf d4aa bc3d e272 46bf
00000380: c5ab 6fc0 6aac 0dbf 52b9 f239 0f45 3abf
00000390: d55e 9a3f 0731 0440 1a21 82be 6752 853f
000003a0: 78bd bf3f 218b 44bf 5955 86bf e3ca d73f
000003b0: 1c9b dfbf ecc2 bbbf 80b0 42bf 2513 aa3f
000003c0: 6b7d 363f a303 8d3f 02cb 50bf ea8f 3abf
000003d0: 8880 853f d541 683f be66 83bf 6c53 9ebf
000003e0: 5be7 78bf 2192 eabf 1a31 a53e a99c a43e
000003f0: 40bd d4be fd32 c0be ffc4 ab3e 52b3 703e
0.8748105 -0.22405826 -0.19590108 -0.2744256 0.0011306261 0.1568782 -0.33814228 0.3939022
0.20234421 -0.4330873 0.3915037 0.27972117 0.1806195 -0.037793167 0.5524313 -0.16889699
0.9189937 0.486191 -0.85356647 0.34451577 -0.2915288 1.0839872 -0.6346049 -0.10390837
-0.19938685 -0.15000008 -0.32811293 -0.09113999 0.32564923 0.51927006 -0.12821837 0.137467
0.6385765 -0.8965299 -0.8060597 0.32500032 -0.4086535 -0.22584261 0.0177057 0.72367024
-0.06301955 0.18006548 -0.1527042 -0.8870463 0.37678424 0.15798676 -0.32491603 -0.65237856
-0.15743375 -0.38312098 -1.4282753 -1.7087268 0.8557593 1.1237382 -1.269373 1.0461116
1.1582935 -1.5341941 -1.1970607 1.0927291 -1.8468357 1.035859 -1.5274767 1.3747249
-1.562135 0.7732573 -1.2834125 -1.9270684 1.2530097 -1.5310819 0.6994941 -2.6732318
0.5542023 2.0805318 1.4114385 1.0900574 0.7426333 0.6908833 -1.5232855 -1.574896
0.7084811 -2.1503112 -2.0612478 1.5978324 1.5890443 -2.35051 1.8546586 1.2926023
1.3230016 -1.8291143 -1.1959178 -1.880594 2.4229047 0.48962238 -1.4660587 -1.533455
1.2020086 2.0279796 1.1687338 2.0441825 1.3253458 1.6203314 -1.03918 -1.2034755
0.85692954 -0.8840478 -1.1393417 1.4025154 1.2779795 -1.1004652 1.5528332 -0.7149027
1.4697664 -1.1359904 1.4930434 -0.76766866 1.628261 1.5799667 -1.0923494 1.7456266
-0.7661591 1.7215846 -1.2030131 -1.6389072 -1.1261356 -1.1106939 -0.82498556 -0.5215112
1.5224847 1.7434555 -0.7861208 1.350114 1.5345685 -1.7284597 -1.6437428 2.1929832
-1.5520767 -1.0037853 -1.158788 1.6321602 0.9543637 1.6905309 -1.8818911 -1.0006504
1.3877243 0.7975569 -1.5080557 -1.9170626 -1.2386017 -1.8148422 1.7167139 0.93364245
-0.0335071 -0.46849197 0.9460176 0.031436313 -0.5109371 1.1861314 0.9161947 -1.5199319
0.7832974 -0.054826155 2.363991 -1.2944131 0.5212468 -0.9748911 1.4942385 1.1451571
-0.41383883 1.4501143 -1.0944856 1.6954267 -0.404792 -1.3512646 -1.3274466 -0.32239
-0.7539204 -0.02551364 0.47426614 1.1699727 -0.4299892 1.1970527 1.3240821 -1.2175235
-1.0374354 1.4147921 -1.0398484 -1.008169 -1.5304976 1.2372465 2.1227994 1.1944097
-0.021163497 -0.52667147 0.3494673 0.6283971 -0.7000775 -0.9546004 -0.5319691 -1.398809
0.71153635 0.0034883718 -1.0204412 -0.39599016 0.25130075 -0.8987019 -2.099316 0.76419866
0.24505244 -2.3210738 1.1374723 -2.258266 0.75157505 -1.319031 0.5965364 -2.5331812
1.5565002 1.042262 -1.0564544 0.4045596 -0.7048987 -0.52403086 0.092122704 -0.7751905
-3.744859 -0.5534121 0.0004629591 -0.72761625 1.206019 2.0654924 -0.2541588 1.0415772
1.4979696 -0.76774794 -1.0494796 1.6858791 -1.7469211 -1.466886 -0.7605057 1.3287092
0.7128512 1.1016735 -0.81559765 -0.72875845 1.042985 0.9072545 -1.026573 -1.2369208
-0.9722802 -1.8325845 0.32264024 0.32150772 -0.41550636 -0.375389 0.33548734 0.23505905

bias f4 [10]
00000000: f494 c03c 5739 48bf d561 3dbe 18c2 213f
00000010: d81c 15bd fd0d 96be 8cd6 a63d bbc6 42be
00000020: b80c c4bd 0446 8e3d
0.023508526 -0.78212494 -0.18494351 0.6318679 -0.03640446 -0.29307547 0.0814639 -0.19021122
-0.095727384 0.06946948
